…
2021-04-02 20:26:43,802 Epoch 3/20000      Iteration 0/1    loss: 1.045737385749817    Time: 15.394 seconds/iteration
2021-04-02 20:26:44,452 
============================================================================================================================
Epoch 3/20000     Train loss: 1.045737385749817        time: 0:00:16.043621
============================================================================================================================

2021-04-17 10:38:10,950 Training for 20000 epochs
2021-04-25 11:47:40,624 Load the model from: C:\Users\Kapil\Downloads\Project\Example Project 1\exps\models\epoch_40000.pt
2021-04-25 11:47:40,652 AnomalyDetector(
  (fc1): Linear(in_features=4096, out_features=512, bias=True)
  (relu1): ReLU()
  (dropout1): Dropout(p=0.6, inplace=False)
  (fc2): Linear(in_features=512, out_features=32, bias=True)
  (dropout2): Dropout(p=0.6, inplace=False)
  (fc3): Linear(in_features=32, out_features=1, bias=True)
  (sig): Sigmoid()
)
2021-04-25 11:52:06,163 Load the model from: C:\Users\Kapil\Downloads\Project\Example Project 1\exps\models\epoch_40000.pt
2021-04-25 11:52:06,168 AnomalyDetector(
  (fc1): Linear(in_features=4096, out_features=512, bias=True)
  (relu1): ReLU()
  (dropout1): Dropout(p=0.6, inplace=False)
  (fc2): Linear(in_features=512, out_features=32, bias=True)
  (dropout2): Dropout(p=0.6, inplace=False)
  (fc3): Linear(in_features=32, out_features=1, bias=True)
  (sig): Sigmoid()
)
2021-04-25 11:52:10,989 Training for 20000 epochs
2021-04-25 12:19:16,323 Load the model from: C:\Users\Kapil\Downloads\Project\Example Project 1\exps\models\epoch_40000.pt
2021-04-25 12:19:16,346 AnomalyDetector(
  (fc1): Linear(in_features=4096, out_features=512, bias=True)
  (relu1): ReLU()
  (dropout1): Dropout(p=0.6, inplace=False)
  (fc2): Linear(in_features=512, out_features=32, bias=True)
  (dropout2): Dropout(p=0.6, inplace=False)
  (fc3): Linear(in_features=32, out_features=1, bias=True)
  (sig): Sigmoid()
)
2021-04-25 12:19:20,632 Training for 20000 epochs
2021-04-25 12:23:00,979 Load the model from: C:\Users\Kapil\Downloads\Project\Example Project 1\exps\models\epoch_0.pt
2021-04-25 12:23:01,005 AnomalyDetector(
  (fc1): Linear(in_features=4096, out_features=512, bias=True)
  (relu1): ReLU()
  (dropout1): Dropout(p=0.6, inplace=False)
  (fc2): Linear(in_features=512, out_features=32, bias=True)
  (dropout2): Dropout(p=0.6, inplace=False)
  (fc3): Linear(in_features=32, out_features=1, bias=True)
  (sig): Sigmoid()
)
2021-04-25 12:23:03,492 Training for 20000 epochs
2021-05-05 17:36:35,426 Training for 20000 epochs
2021-05-05 17:37:32,290 Training for 20000 epochs
2021-05-05 17:56:44,204 Training for 20000 epochs
2021-05-05 18:03:08,254 Training for 20000 epochs
2021-05-05 18:03:57,382 Training for 20000 epochs
2021-05-05 18:04:14,311 Epoch 1/20000      Iteration 0/1    loss: 1.0471527576446533    Time: 16.927 seconds/iteration
…
